Examples/my_first_try/model_1.onnx (onnx, 20174 bytes, 6 tensors)

mlp_extractor.policy_net.0.weight f4 [64, 4]
0.19512853 0.13531378 0.034487344 -0.3300182 0.13957053 -0.06767066 -0.1576165 0.06714333
-0.059219524 0.11558029 -0.14033836 -0.07244355 -0.24947087 -0.036924772 -0.29323855 -0.26207072
0.37037113 0.107105866 0.32342348 0.03563927 0.26713628 0.13296834 -0.006410094 -0.38129246
0.312175 0.20631367 0.11554183 -0.16034135 0.16666993 0.14378285 -0.32263455 0.014722144
0.37953046 0.006713574 0.15628971 0.04608755 0.017594509 0.13118994 -0.08585128 -0.10923736
-0.12128933 0.25578293 0.1645119 -0.3033692 0.104581445 0.1475935 0.06562958 0.23524752
0.114453174 0.08643882 -0.121130876 0.18650855 -0.1980757 -0.12973796 0.017326577 0.06342327
0.28468493 -0.09858209 -0.15993245 -0.16850033 0.024809921 -0.044077903 0.1669172 0.014293534
0.061287086 0.0912907 -0.13398904 0.107176386 -0.21355 0.28258556 0.23787895 -0.06844524
-0.36241516 0.14326018 0.29147607 -0.062478818 -0.21513858 -0.23055097 -0.07554059 0.15257338
-0.21482411 -0.19288489 0.36437282 0.062160403 0.014504534 0.079401955 0.24106938 -0.30149472
-0.23193444 0.05688825 -0.35202357 -0.03179291 0.11372696 0.20479186 -0.2164689 -0.109407105
0.28828803 0.277325 -0.029706359 0.004567989 0.033584706 0.09685175 -0.010506992 -0.15457606
0.05050013 -0.0074450695 0.10372665 0.35402972 -0.12386829 0.18032311 0.08366968 -0.13816811
-0.22873223 -0.030329274 -0.028412119 0.019223131 0.23269074 -0.3358221 -0.26088873 0.37106848
0.3123216 0.042595975 0.12798412 0.15518966 0.24630101 0.2271862 -0.34814978 -0.16561835
-0.058157127 0.0060077007 0.058422025 0.11681715 0.14254011 0.17508547 -0.061686702 0.33568013
-0.13464847 -0.21041124 -0.07613307 -0.1109585 0.037323076 0.07434933 -0.17809843 -0.059011836
-0.040077288 0.078772165 -0.14329737 0.23946725 -0.04444648 0.3027899 -0.15182927 -0.17034224
0.3680745 -0.23354182 0.013945242 -0.43255007 -0.08156328 -0.48267928 0.13584837 0.052282695
0.077558435 0.07414002 0.12728176 -0.11283576 -0.122844644 -0.038116418 -0.32704493 0.07780592
-0.006225255 0.40641266 0.12192804 0.121726714 -0.16711985 0.06886575 -0.22186549 0.11941386
-0.2083387 0.22519127 -0.040971756 0.0086477185 -0.03634139 -0.04996071 -0.13309725 0.27001053
-0.29412478 0.26938108 0.16457255 -0.19709782 -0.0074202144 0.037415404 -0.08184896 -0.26650146
-0.15225188 0.18457961 0.21661046 -0.1096179 -0.12044196 0.15677564 -0.15712179 -0.049020585
0.017292596 -0.35471132 -0.1491034 0.018167494 -0.072174795 0.03681978 0.052230395 -0.044789784
-0.247349 0.042821996 0.102485135 0.19716565 -0.10045453 -0.13400061 0.24857497 -0.03242237
-0.22382724 -0.021422056 -0.13846427 -0.07418557 -0.08216308 -0.30166924 0.021427581 -0.0070538586
-0.07161251 -0.13000903 0.23199846 0.0049113412 0.28078616 0.2547606 -0.29530734 -0.2596658
-0.21551174 0.16885509 0.17647922 -0.11823489 0.0021817817 -0.07193047 0.0047301934 -0.09082497
0.23028141 -0.1977006 -0.095572785 -0.022256505 -0.022433218 -0.16584328 0.06636568 0.0011946956
0.28624213 0.18213393 -0.15629883 0.31037623 0.06434797 -0.0029449621 0.042178664 0.07054805
00000000: c6cf 473e b28f 0a3e 9a42 0d3d 25f8 a8be
00000010: 94eb 0e3e ea96 8abd 3866 21be 7182 893d
00000020: 2c90 72bd 5cb5 ec3d dcb4 0fbe 495d 94bd
00000030: 4b75 7fbe 6e3e 17bd 5d23 96be 222e 86be
00000040: 49a1 bd3e 525a db3d c397 a53e 7cfa 113d
00000050: 16c6 883e da28 083e c40b d2bb c438 c3be
00000060: 67d5 9f3e e443 533e 32a1 ec3d 8630 24be
00000070: 86ab 2a3e d03b 133e 5b30 a5be 2635 713c
00000080: d151 c23e 8afd db3b 690a 203e 4dc6 3c3d
00000090: 5c22 903c a856 063e ccd2 afbd d6b7 dfbd
000000a0: 8a66 f8bd fbf5 823e cf75 283e 3553 9bbe
000000b0: cc2e d63d c022 173e cd68 863d bae4 703e
000000c0: 6d66 ea3d d606 b13d 7713 f8bd 19fc 3e3e
000000d0: 5bd4 4abe 07da 04be 77f0 8d3c 0fe4 813d
000000e0: 39c2 913e 68e5 c9bd 55c5 23be 5a8b 2cbe
000000f0: 2d3e cb3c 088b 34bd 58ec 2a3e 6d2f 6a3c
00000100: 2b08 7b3d 9ef6 ba3d 6c34 09be 4b7f db3d
00000110: daac 5abe 0eaf 903e 8a96 733e 052d 8cbd
00000120: 7b8e b9be ccb2 123e 5a3c 953e cae9 7fbd
00000130: 4a4d 5cbe 8e15 6cbe 06b5 9abd 323c 1c3e
00000140: dafa 5bbe 9e83 45be 138f ba3e e89b 7e3d
00000150: 6da4 6d3c 7e9d a23d e4da 763e 845d 9abe
00000160: 3980 6dbe a703 693d 6f3c b4be 4839 02bd
00000170: aee9 e83d f5b4 513e 06aa 5dbe d510 e0bd
00000180: 7d9a 933e 8bfd 8d3e c05a f3bc 12af 953b
00000190: 1e90 093d 365a c63d 8525 2cbc 3049 1ebe
000001a0: 39d9 4e3d c5f5 f3bb a36e d43d 6243 b53e
000001b0: a8ae fdbd 9fa6 383e 025b ab3d f17b 0dbe
000001c0: c838 6abe 1975 f8bc 88c0 e8bc d479 9d3c
000001d0: 7b46 6e3e e0f0 abbe 3593 85be b0fc bd3e
000001e0: 9ee8 9f3e 1e79 2e3d 450e 033e 0aea 1e3e
000001f0: 5536 7c3e 80a3 683e b040 b2be db97 29be
00000200: 2b36 6ebd 3fdc c43b ef4b 6f3d d43d ef3d
00000210: 09f6 113e 9b49 333e 32ab 7cbd 44de ab3e
00000220: 4ae1 09be 0b76 57be a8eb 9bbd 363e e3bd
00000230: 15e0 183d 7644 983d 6f5f 36be 65b6 71bd
00000240: 1528 24bd 4d53 a13d 8cbc 12be e736 753e
00000250: 830d 36bd 4707 9b3e 2279 1bbe 326e 2ebe
00000260: 4374 bc3e 9625 6fbe 967a 643c 3477 ddbe
00000270: a60a a7bd bd21 f7be d61b 0b3e 6126 563d
00000280: f5d6 9e3d b9d6 973d 2656 023e 6f16 e7bd
00000290: f995 fbbd f61f 1cbd 6f72 a7be b658 9f3d
000002a0: 39fd cbbb 5215 d03e 69b5 f93d db4b f93d
000002b0: 7721 2bbe 7d09 8d3d b530 63be 418f f43d
000002c0: bd56 55be 8a98 663e 00d2 27bd 29af 0d3c
000002d0: b6da 14bd 9aa3 4cbd a54a 08be d23e 8a3e
000002e0: 8697 96be 51ec 893e b585 283e 03d4 49be
000002f0: 4525 f3bb e540 193d 6da0 a7bd e172 88be
00000300: ebe7 1bbe 7002 3d3e 22cf 5d3e 597f e0bd
00000310: 46aa f6bd cb89 203e 89e4 20be cfc9 48bd
00000320: 34a9 8d3c b99c b5be 90ae 18be ffd3 943c
00000330: 61d0 93bd 56d0 163d 8aef 553d 7e75 37bd
00000340: 0e49 7dbe 1e66 2f3d bae3 d13d cbe5 493e
00000350: 1bbb cdbd 7537 09be 708a 7e3e 52cd 04bd
00000360: f832 65be 4f7d afbc 94c9 0dbe 9bee 97bd
00000370: 1e45 a8bd 6474 9abe e588 af3c 0e24 e7bb
00000380: 94a9 92bd 1621 05be 0191 6d3e 51ef a03b
00000390: 34c3 8f3e fb6f 823e 8632 97be eaf2 84be
000003a0: 1caf 5cbe 59e8 2c3e f8b6 343e 2225 f2bd
000003b0: 39fc 0e3b 4850 93bd bdff 9a3b 7102 babd
000003c0: e4ce 6b3e 0772 4abe aabb c3bd 4653 b6bc
000003d0: dec5 b7bc d2d2 29be bbea 873d 5597 9c3a
000003e0: 548e 923e 5181 3a3e cd0c 20be a2e9 9e3e
000003f0: dec8 833d 4400 41bb 89c3 2c3d 7f7b 903d

mlp_extractor.policy_net.0.bias f4 [64]
0.013419179 0.027049046 0.03713626 -0.0015664384 0.00052575814 0.04514952 -0.0033109623 0.021873266
0.0024907487 0.017093904 0.005600106 0.012765164 -0.008993925 -0.005722894 0.04452114 -0.016038708
0.013035061 -0.036268733 -0.07139541 -0.0014611772 -0.031682704 0.012343373 0.005725402 0.0064172447
-0.00035336387 0.011348901 0.00026707447 -0.014159077 -0.021809844 -0.031579472 0.002090711 0.06765089
-0.032836072 0.007088166 -0.0085919695 0.0362831 -0.010892016 0.031744186 0.013281444 0.012701192
0.0069062216 -0.0049309 0.008648889 -3.4175497e-05 0.014484191 -0.027457504 0.037058886 0.0017785373
-0.038935892 0.021759944 -0.012084777 0.0008971425 -0.029051678 -0.02147434 -0.012782941 -0.014396656
-0.02787082 0.035709057 -0.034909256 0.02195883 0.014536578 -0.021599935 0.0026177545 -0.0014732966
00000000: 1edc 5b3c f695 dd3c 311c 183d f350 cdba
00000010: 08d3 093a b4ee 383d bbfc 58bb 902f b33c
00000020: d43b 233b 8408 8c3c 1881 b73b fa24 513c
00000030: 415b 13bc 1d87 bbbb cd5b 363d 9c63 83bc
00000040: 0291 553c 868e 14bd c237 92bd f984 bfba
00000050: b9c5 01bd dc3b 4a3c 279c bb3b c047 d23b
00000060: b243 b9b9 bef0 393c 2106 8c39 79fb 67bc
00000070: 8faa b2bc 7a59 01bd 4f04 093b 8d8c 8a3d
00000080: 1e7f 06bd d943 e83b 55c5 0cbc 969d 143d
00000090: 6d74 32bc 3106 023d 6a9a 593c a918 503c
000000a0: 964d e23b 6393 a1bb 12b4 0d3c a957 0fb8
000000b0: 1a4f 6d3c 8fee e0bc 0fcb 173d cf1d e93a
000000c0: 3e7b 1fbd e941 b23c 3aff 45bc 372e 6b3a
000000d0: c9fd edbc f5ea afbc 8a6f 51bc f4df 6bbc
000000e0: 5951 e4bc a943 123d 02fd 0ebd 01e3 b33c
000000f0: d42a 6e3c 59f2 b0bc a28e 2b3b a11b c1ba

mlp_extractor.policy_net.2.weight f4 [64, 64]
0.087181345 0.29540572 -0.22803362 0.015020101 0.23017122 0.22617431 0.008135518 -0.32218394
0.086889185 -0.20080528 -0.079752415 -0.33710197 -0.31333756 -0.048661403 -0.24051559 -0.13108249
0.035401344 -0.006259587 -0.11134787 -0.07676466 -0.0029423519 0.025174487 0.19896792 0.09031807
-0.2681292 0.022578632 -0.060548235 0.1651368 0.14424933 0.22093418 -0.3028349 -0.05292124
-0.15579407 -0.16798675 0.14169236 0.37037247 0.27056602 0.20864896 0.15231018 -0.15461463
0.19383533 -0.08915501 -0.23843092 0.4187681 -0.10343776 0.01599446 -0.0050197854 0.15686348
-0.069554865 -0.0582401 0.037978683 -0.10771922 0.07791477 0.018302444 -0.06599011 0.15488915
-0.21732359 0.27445373 -0.072678715 -0.29441643 0.026304273 -0.0120666465 -0.06980009 0.014114892
-0.03357998 -0.04311937 -0.055045616 0.0028949094 0.26881203 -0.08939966 -0.023910245 -0.08423049
0.19190471 -0.061321013 -0.25626808 0.0025277408 0.18163045 0.022281345 -0.38214046 0.10831239
0.08333582 -0.21021576 -0.10231873 0.5308373 -0.29715168 0.020197224 -0.5193233 -0.002718738
0.06655513 0.16096218 -0.12931195 -0.0654188 0.008067939 -0.015189264 0.17585714 -0.09376922
-0.013635915 -0.13709739 -0.056356143 -0.17065352 0.03916598 -0.11686722 -0.34577686 -0.018948993
0.21941046 -0.22090602 -0.017471433 -0.09147565 0.116209865 -0.08154889 -0.2873292 0.18446538
-0.09909218 -0.18852301 0.0059140595 0.06466776 0.11012676 0.07654984 -0.09213723 -0.073958494
-0.0058140033 0.40359107 0.23617055 -0.13422611 -0.0771496 0.08729789 0.22236536 -0.07218186
0.048666775 -0.0121621275 0.31400156 -0.3886571 0.072116435 0.031438597 -0.08176622 -0.023146143
0.066025235 0.34708685 0.16656718 0.0581987 0.16089419 -0.0628456 -0.09516195 0.0020779842
-0.54335785 -0.05741053 -0.18570806 -0.07467698 -0.03522165 0.023160297 -0.12764847 0.084723935
0.22919562 0.323292 0.28791592 0.2634325 0.009982293 -0.14749022 -0.048228633 0.031301964
-0.36516443 0.07731817 -0.27574405 -0.03221275 -0.18900669 0.38422114 0.07091273 -0.113333516
-0.035660055 0.10622601 0.097243555 -0.06553555 -0.14489014 -0.03760408 0.15929197 0.25288367
-0.23815027 0.15895855 0.018116081 -0.055588722 0.044297498 -0.17592454 -0.11407983 0.16068448
0.16071019 0.25812554 -0.088388085 -0.2701926 -0.08525245 0.14214346 -0.22568218 -0.3310584
0.17485419 0.049829856 0.034850832 -0.014266935 0.21748367 0.21114334 -0.11934685 -0.049535345
-0.29447573 -0.41994327 -0.0046757534 0.05726894 -0.25712958 -0.21477237 0.033396263 0.21296023
0.15710405 -0.38211316 0.08424211 0.1350561 -0.021074655 0.2345315 0.054146923 -0.20319013
0.07662157 -0.20405863 -0.14345965 0.06820538 -0.24472624 -0.3703475 0.20983139 -0.078018665
-0.07534367 0.045573134 0.05201032 -0.12242528 0.0101687275 -0.020161489 0.15983611 -0.011055022
-0.056725714 0.36079547 0.46901235 -0.0044063856 -0.15801425 0.2293245 0.01816091 0.086256735
0.149392 0.22293322 -0.14375103 0.102030456 0.18091613 0.07536537 -0.04603037 0.2104749
0.0019282311 0.22339122 0.019698732 0.04892946 0.12224404 -0.049770396 -0.074423425 -0.2645596
00000000: 228c b23d 6b3f 973e a581 69be df16 763c
00000010: 01b2 6b3e 3d9a 673e d64a 053c 4bf5 a4be
00000020: f5f2 b13d e69f 4dbe 3c55 a3bd a198 acbe
00000030: c86d a0be 2e51 47bd b849 76be 7d3a 06be
00000040: 0001 113d 391d cdbb 5a0a e4bd ca36 9dbd
00000050: 79d4 40bb ba3a ce3c 3fbe 4b3e aef8 b83d
00000060: 3b48 89be d3f6 b83c 6d01 78bd 9f19 293e
00000070: 19b6 133e 923c 623e 2d0d 9bbe f1c3 58bd
00000080: 7b88 1fbe b804 2cbe cd17 113e 76a1 bd3e
00000090: a187 8a3e 13a8 553e 33f7 1b3e 4c53 1ebe
000000a0: c57c 463e e796 b6bd 3c27 74be c668 d63e
000000b0: 2dd7 d3bd d006 833c 037d a4bb d2a0 203e
000000c0: c872 8ebd 2c8d 6ebd 898f 1b3d e59b dcbd
000000d0: c791 9f3d 02ef 953c d325 87bd 439b 1e3e
000000e0: 138a 5ebe 3385 8c3e 94d8 94bd c0bd 96be
000000f0: 0f7c d73c 2fb3 45bc 59f3 8ebd 2642 673c
00000100: 298b 09bd f09d 30bd 8377 61bd 85b8 3d3b
00000110: bba1 893e 2b17 b7bd 6bdf c3bc 0981 acbd
00000120: ab82 443e be2b 7bbd 9235 83be 74a8 253b
00000130: 55fd 393e 5e87 b63c eaa7 c3be e3d2 dd3d
00000140: f8ab aa3d cd42 57be 7b8c d1bd f4e4 073f
00000150: 4424 98be a674 a53c 5ff2 04bf db2c 32bb
00000160: 0e4e 883d 45d3 243e 5a6a 04be 4bfa 85bd
00000170: 642f 043c 64dc 78bc e513 343e 140a c0bd
00000180: 2c69 5fbc 4263 0cbe b3d5 66bd ccbf 2ebe
00000190: 826c 203d 1558 efbd aa09 b1be eb3a 9bbc
000001a0: 23ad 603e 3035 62be 4020 8fbc 9657 bbbd
000001b0: 70ff ed3d 1b03 a7bd d01c 93be 7ee4 3c3e
000001c0: d7f0 cabd 2d0c 41be baca c13b 8870 843d
000001d0: 248a e13d 2ac6 9c3d 72b2 bcbd 8d77 97bd
000001e0: 6583 bebb 7da3 ce3e b1d6 713e 9272 09be
000001f0: 9c00 9ebd 3cc9 b23d bfb3 633e 15d4 93bd
00000200: d056 473d a943 47bc d0c4 a03e 10fe c6be
00000210: c8b1 933d c2c5 003d 0c75 a7bd fb9c bdbc
00000220: 3d38 873d 5eb5 b13e 9690 2a3e c361 6e3d
00000230: 72c1 243e 32b5 80bd 45e4 c2bd ca2e 083b
00000240: 8019 0bbf 4e27 6bbd 412a 3ebe 3ff0 98bd
00000250: 9444 10bd aaba bd3c 48b6 02be be83 ad3d
00000260: 42b2 6a3e 8786 a53e b769 933e a0e0 863e
00000270: c58c 233c ad07 17be 638b 45bd 7d36 003d
00000280: d5f6 babe fd58 9e3d 532e 8dbe 84f1 03bd
00000290: f88a 41be a2b8 c43e b23a 913d 671b e8bd
000002a0: 4710 12bd 068d d93d a127 c73d 8137 86bd
000002b0: 155e 14be bc06 1abd 6f1d 233e f879 813e
000002c0: aadd 73be 08c6 223e 2d68 943c 00b1 63bd
000002d0: 4b71 353d 9025 34be b0a2 e9bd 798a 243e
000002e0: 3691 243e 0829 843e d004 b5bd af56 8abe
000002f0: d698 aebd 0e8e 113e 3b19 67be 7d80 a9be
00000300: fa0c 333e 641a 4c3d bfbf 0e3d ddbf 69bc
00000310: 0ab4 5e3e f635 583e 1f6c f4bd 93e5 4abd
00000320: 86c5 96be ce02 d7be 1037 99bb d692 6a3d
00000330: 7da6 83be 4aed 5bbe 85ca 083d 3f12 5a3e
00000340: e2df 203e 56a4 c3be 2187 ac3d 254c 0a3e
00000350: c1a4 acbc 0729 703e 2ac9 5d3d 1311 50be
00000360: c5eb 9c3d bff4 50be 16e7 12be 43af 8b3d
00000370: 8499 7abe 309e bdbe 0ade 563e 40c8 9fbd
00000380: c84d 9abd e5aa 3a3d c608 553d 1bba fabd
00000390: bc9a 263c b529 a5bc 14ac 233e 1f20 35bc
000003a0: 3959 68bd 2fba b83e 6322 f03e 7163 90bb
000003b0: 7dce 21be 0bd4 6a3e 30c6 943c 5fa7 b03d
000003c0: 37fa 183e 9b48 643e 7833 13be 58f5 d03d
000003d0: 1442 393e 2959 9a3d 578a 3cbd bb86 573e
000003e0: b3bc fc3a abc0 643e 3c5f a13c 426a 483d
000003f0: 155b fa3d 0bdc 4bbd 4f6b 98bd 5b74 87be

mlp_extractor.policy_net.2.bias f4 [64]
0.0008006921 -0.0001981109 0.017225929 0.011411972 -0.008973267 0.022184279 0.009842066 -0.008770799
-0.011939873 -0.018784888 -0.003105282 0.010999446 0.0024820098 -0.005058841 0.02748712 -0.00088393316
0.0141206905 -0.014484304 0.0110653965 -0.017916914 -0.018133856 0.011511689 -0.0021749637 0.011419705
0.012380841 -0.01625475 0.005849683 -0.00036244636 0.0060063247 -0.0004220371 -0.020883894 0.010868644
0.023877673 0.0003921119 -0.0115770865 0.006011217 0.009978355 -0.026883198 0.0002676681 0.015218901
0.032535918 -0.011744843 -0.00714584 -0.009758031 0.019454116 0.008881053 -0.016738066 -0.001342712
0.0010820839 -0.005334728 0.012728349 0.0010197184 -0.019213973 2.7060638e-05 0.010497174 0.0110838
0.004139136 -0.0062635983 -0.00031944088 -0.016411902 -0.014045251 0.0015198735 -0.031200072 -0.00972328
00000000: 8ae5 513a fdbb 4fb9 641d 8d3c 48f9 3a3c
00000010: 9c04 13bc cebb b53c 9e40 213c 66b3 0fbc
00000020: 759f 43bc c4e2 99bc fd81 4bbb 0537 343c
00000030: 37a9 223b a2c4 a5bb ab2c e13c c0b7 67ba
00000040: 785a 673c 934f 6dbc a34b 353c 7ec6 92bc
00000050: 748d 94bc 869b 3c3c d689 0ebb b719 3b3c
00000060: 03d9 4a3c ae28 85bc b3ae bf3b ba06 beb9
00000070: b4d0 c43b dc44 ddb9 b314 abbc 6612 323c
00000080: 1c9b c33c 5e94 cd39 d2ad 3dbc bef9 c43b
00000090: 417c 233c 273a dcbc ce55 8c39 b358 793c
000000a0: 6244 053d 716d 40bc a727 eabb 26e0 1fbc
000000b0: 3d5e 9f3c d681 113c 451e 89bc f0fd afba
000000c0: b6d4 8d3a f1ce aebb 918a 503c 12a8 853a
000000d0: 9f66 9dbc 4700 e337 57fc 2b3c d498 353c
000000e0: 97a1 873b df3e cdbb a17a a7b9 4172 86bc
000000f0: 0d1e 66bc 7e36 c73a 4b97 ffbc 644e 1fbc

action_net.weight f4 [2, 64]
0.0057586124 -0.015092023 -0.07000254 0.01242659 0.10279542 -0.037615217 -0.11053348 -0.036883023
0.08270606 0.21253061 0.107294634 -0.2003854 -0.027987853 0.0917285 -0.10076502 -0.07045546
-0.07778102 0.084271476 -0.081511445 -0.07319348 0.0718253 -0.019743001 -0.049223825 -0.17548092
-0.012508206 0.20352964 -0.15314662 -0.14439535 0.028195214 -0.0149212405 0.075594984 -0.0030159878
-0.107178025 -0.15712485 -0.15783492 0.03448625 -0.020963814 -0.060315177 0.012165217 -0.069408335
-0.036562495 0.0036164622 0.13778399 0.021879416 -0.021861259 -0.15753996 -0.07650093 -0.001501307
-0.041204873 -0.06520347 -0.03927297 0.00041484597 0.040805556 -0.014600561 -0.07965527 -0.0069375294
-0.032783113 0.052970085 -0.1952388 0.17598686 0.1875328 0.01926388 0.051761914 -0.0267129
-0.0030137445 0.0033544695 -0.13977641 -0.029357439 0.13020563 0.09475074 0.049506858 -0.10557577
0.0296669 0.06572174 -0.17078738 -0.11851825 -0.16573834 0.18323998 -0.07243477 0.09496646
0.16667947 0.16678172 -0.109020196 -0.052953247 0.0771054 0.023094181 -0.146497 0.024382958
-0.017237097 0.044712376 -0.115897596 0.102076896 -0.006421332 -0.0027227087 -0.0893649 0.04743202
-0.07803697 -0.12408065 0.14244942 -0.007587822 0.01163419 -0.12210502 -0.0017212654 -0.15622951
-0.10092892 -0.011591284 -0.13290837 -0.03652058 0.023362976 -0.05395846 0.023019357 0.0028020137
0.12685221 0.12216968 -0.11198676 0.010245702 0.014503646 -0.000961096 -0.039987065 0.023009717
0.16643652 -0.11357109 -0.12473048 -0.0010319788 0.05452084 -0.0036469402 0.0033628377 -0.031408414
00000000: beb2 bc3b 8844 77bc 7e5d 8fbd e598 4b3c
00000010: 6886 d23d 6a12 1abd 615f e2bd a712 17bd
00000020: cb61 a93d a0a1 593e 4abd db3d d531 4dbe
00000030: c846 e5bc 27dc bb3d e45d cebd f44a 90bd
00000040: a84b 9fbd 8696 ac3d 79ef a6bd 77e6 95bd
00000050: 2519 933d 13bc a1bc ec9e 49bd 45b1 33be
00000060: 38ef 4cbc 136a 503e 78d2 1cbe 60dc 13be
00000070: a6f9 e63c 3878 74bc 8bd1 9a3d e1a7 45bb
00000080: 2780 dbbd 56e5 20be 7a9f 21be 7441 0d3d
00000090: 4ebc abbc 0c0d 77bd 9e50 473c f525 8ebd
000000a0: 8ec2 15bd 2b02 6d3b 3f17 0d3e 763c b33c
000000b0: 6216 b3bc 2852 21be 85ac 9cbd 81c7 c4ba
000000c0: 71c6 28bd 6689 85bd b2dc 20bd af7f d939
000000d0: ba23 273d 3137 6fbc 4d22 a3bd 3754 e3bb
000000e0: 9647 06bd 29f7 583d aeec 47be e635 343e
000000f0: 9908 403e 49cf 9d3c 4d04 543d 03d5 dabc
00000100: 3e82 45bb a9d6 5b3b 8c21 0fbe 037f f0bc
00000110: a054 053e ad0c c23d b4c7 4a3d 1c38 d8bd
00000120: 0008 f33c 1f99 863d e3e2 2ebe b2b9 f2bd
00000130: 50b7 29be 43a3 3b3e ae58 94bd c67d c23d
00000140: 06ae 2a3e d4c8 2a3e fb45 dfbd 81e5 58bd
00000150: 70e9 9d3d 0230 bd3c 4f03 16be c5be c73c
00000160: d034 8dbc 5324 373d b85b edbd b10d d13d
00000170: 096a d2bb 796f 32bb f204 b7bd 1448 423d
00000180: d9d1 9fbd ff1d febd 43de 113e 44a3 f8bb
00000190: 549d 3e3c 3212 fabd 159c e1ba a1fa 1fbe
000001a0: d2b3 cebd 5ee9 3dbc 2219 08be 9b96 15bd
000001b0: b663 bf3c 8c03 5dbd 1793 bc3c fda1 373b
000001c0: 8ce5 013e 1934 fa3d 5059 e5bd 97dd 273c
000001d0: b3a0 6d3c 10f2 7bba 7ac9 23bd e07e bc3c
000001e0: 566e 2a3e f697 e8bd b272 ffbd 7643 87ba
000001f0: 3f51 5f3d 8101 6fbb 0e63 5c3b 1ca6 00bd

action_net.bias f4 [2]
-0.015184736 0.0008551672
00000000: 66c9 78bc 4d2d 603a
