Examples/my_first_try/model.onnx (onnx, 20174 bytes, 6 tensors)

mlp_extractor.policy_net.0.weight f4 [64, 4]
-0.021585327 -0.24909203 -0.08462954 0.5814861 -0.26618665 0.07455498 0.10626587 -0.056351777
-0.06340047 -0.26192245 -0.10250666 0.09586498 0.048222646 0.066935405 -0.11306519 0.16656123
0.07171918 -0.07763083 0.19556938 -0.1547903 -0.19905382 -0.119540945 0.19853455 0.046621248
-0.009167748 0.044939276 -0.014450983 0.17138676 -0.09646928 -0.27781835 -0.17929651 -0.3384278
0.1875315 -0.30219454 -0.3539987 0.31022725 -0.28259933 0.25130433 -0.12252782 0.21283755
0.33303198 -0.0961781 -0.20042129 0.041477226 -0.3252712 -0.13166438 0.038687944 -0.0007124803
-0.09542143 0.03825266 -0.095291555 -0.0025061877 0.14295115 -0.09226216 -0.21383394 0.03692937
-0.4281304 -0.10880072 0.2147647 -0.06496304 -0.23046744 0.11047283 0.39575705 -0.12239124
0.0711629 -0.0565677 0.06126522 0.26966667 0.20096974 -0.0023624266 -0.1754056 0.049934525
0.110129125 0.16677472 -0.08450806 -0.019934947 0.23619094 0.13175154 -0.2020146 -0.05317108
-0.38698277 0.078560136 0.2812079 0.039112903 -0.083111085 -0.22400299 0.24313593 0.15075932
0.25741848 0.030856272 0.38362914 0.109326236 0.04238346 0.05779789 -0.03935 0.17247254
0.015057944 0.015718523 -0.076065555 0.18155515 -0.055266187 -0.0027789143 0.054636218 0.19145453
-0.2282388 -0.22140683 0.22311881 0.18972701 0.08676502 0.13186505 -0.19272855 -0.100229666
-0.16394895 -0.030340947 0.24655658 0.019079793 0.1785647 -0.08537701 0.06223745 -0.21158323
-0.033525728 0.026387671 -0.1384487 0.0010098309 -0.23634285 -0.086754255 0.2681537 0.11453751
0.20801 -0.19832367 -0.06854674 0.10220444 0.0168735 -0.038284946 -0.24806644 -0.18575601
0.04186889 0.08392245 0.03753005 0.28798875 -0.1772931 0.34862715 -0.17484592 0.1820479
0.16439226 0.21229537 -0.18238154 -0.19120456 0.09740404 0.1874314 -0.056328747 -0.03401616
-0.3468377 -0.07706363 0.16915141 0.12317542 -0.065228276 -0.18241784 0.14695637 0.1460143
-0.30880895 -0.34030935 -0.09310975 0.16233332 -0.1130465 0.15054967 -0.34899065 -0.008396084
-0.29359135 -0.13974477 0.019571448 0.09973165 0.10592335 -0.061738104 0.028402014 0.13997865
0.16431803 0.40673214 0.0036490515 -0.15045646 -0.07544192 -0.42124623 0.13300085 0.19699612
-0.22144009 -0.06403436 0.05705728 0.1442315 0.28048483 0.07792473 -0.1211481 -0.09643403
-0.0847273 -0.16990568 0.06919633 0.16123511 0.009044817 0.28616118 -0.014191473 0.16394317
0.18175632 -0.2664214 -0.009665897 -0.20299585 0.31128076 -0.018238183 -0.28207853 -0.099760346
0.067586765 0.057862353 0.06570439 -0.037025403 0.15124463 0.13476704 0.5074834 0.29700366
-0.21236625 0.0030997528 0.13935688 -0.062313184 0.27370745 0.019699577 -0.16808355 0.0069502653
-0.0011061571 -0.0701323 -0.2285772 0.37012663 0.039830953 0.010391515 -0.03802973 0.13132718
0.36987248 0.20630695 -0.22784384 -0.23808314 -0.045984883 -0.14568195 -0.000958201 0.087950304
-0.028720668 0.15831003 -0.2584229 -0.14396358 -0.12703767 -0.030353948 -0.24316852 -0.094817474
-0.09447965 -0.4067476 0.1501282 0.2677518 0.29283217 0.07746764 -0.16170388 0.22759184
00000000: b6d3 b0bc fb11 7fbe 4152 adbd 46dc 143f
00000010: 9e49 88be 48b0 983d eca1 d93d 1fd1 66bd
00000020: 1bd8 81bd b31a 86be 03ef d1bd dc54 c43d
00000030: 1c85 453d 6e15 893d b98e e7bd 078f 2a3e
00000040: 81e1 923d eafc 9ebd 5743 483e 5981 1ebe
00000050: c4d4 4bbe e2d1 f4bd a44c 4b3e ecf5 3e3d
00000060: 5234 16bc 3f12 383d d1c3 6cbc 0380 2f3e
00000070: b091 c5bd 353e 8ebe 8199 37be 6946 adbe
00000080: 4208 403e 3eb9 9abe 513f b5be 1bd6 9e3e
00000090: dcb0 90be f6aa 803e deef fabd 16f2 593e
000000a0: 2b83 aa3e 06f9 c4bd 3d3b 4dbe 06e4 293d
000000b0: f289 a6be 07d3 06be 4077 1e3d bec5 3aba
000000c0: 506c c3bd d2ae 1c3d 3828 c3bd da3e 24bb
000000d0: c961 123e f1f3 bcbd 49f7 5abe 4043 173d
000000e0: e833 dbbe e9d2 debd 47eb 5b3e 580b 85bd
000000f0: a8ff 6bbe 943f e23d aba0 ca3e 42a8 fabd
00000100: dbbd 913d 88b3 67bd 3df1 7a3d c011 8a3e
00000110: 03cb 4d3e f1d2 1abb 879d 33be 2588 4c3d
00000120: 618b e13d fec6 2a3e 9012 adbd 9d4e a3bc
00000130: 0adc 713e e0e9 063e eadc 4ebe ebc9 59bd
00000140: 9b22 c6be 23e4 a03d 7bfa 8f3e da34 203d
00000150: 2536 aabd 0a61 65be a0f8 783e a760 1a3e
00000160: 5bcc 833e 4bc6 fc3c 0a6b c43e 6fe6 df3d
00000170: 479a 2d3d 7bbd 6c3d 772d 21bd a49c 303e
00000180: 98b5 763c 22c4 803c 42c8 9bbd 98e9 393e
00000190: cc5e 62bd 721e 36bb 3aca 5f3d a80c 443e
000001a0: 6fb7 69be 79b8 62be 4279 643e cc47 423e
000001b0: dcb1 b13d a207 073e a25a 45be 3645 cdbd
000001c0: 3ce2 27be 948d f8bc 5479 7c3e 3a4d 9c3c
000001d0: aad9 363e 24da aebd b2ec 7e3d 46a9 58be
000001e0: 4652 09bd f52a d83c 7fc5 0dbe 4d5c 843a
000001f0: dc03 72be 37ac b1bd 714b 893e a492 ea3d
00000200: 9300 553e 5c15 4bbe 3c62 8cbd 9050 d13d
00000210: 4b3a 8a3c add0 1cbd 2105 7ebe d336 3ebe
00000220: b77e 2b3d 89df ab3d 1cb9 193d 4373 933e
00000230: 538c 35be 427f b23e cf0a 33be c46a 3a3e
00000240: 7256 283e f563 593e 3ac2 3abe 21cb 43be
00000250: c57b c73d 04ee 3f3e f9b8 66bd 8754 0bbd
00000260: b694 b1be 89d3 9dbd 0736 2d3e 6543 fc3d
00000270: 6796 85bd becb 3abe bb7b 163e c684 153e
00000280: 351c 9ebe 073d aebe 53b0 bebd b53a 263e
00000290: ec84 e7bd b129 1a3e e7ae b2be bb8f 09bc
000002a0: 9b51 96be 4119 0fbe 4d54 a03c 1b40 cc3d
000002b0: 57ee d83d 18e1 7cbd 57ab e83c 9056 0f3e
000002c0: fc42 283e 323f d03e ed24 6f3b 4211 1abe
000002d0: 4b81 9abd 96ad d7be 6031 083e 5ab9 493e
000002e0: 31c1 62be 7224 83bd e5b4 693d 6cb1 133e
000002f0: b59b 8f3e 0097 9f3d 7f1c f8bd 347f c5bd
00000300: 8285 adbd c1fb 2dbe ceb6 8d3d d11a 253e
00000310: b630 143c b883 923e 5a83 68bc b8e0 273e
00000320: 541e 3a3e 6368 88be b65d 1ebc 25de 4fbe
00000330: 3160 9f3e 3e68 95bc 996c 90be 274f ccbd
00000340: ee6a 8a3d 1301 6d3d 0690 863d f3a7 17bd
00000350: dfdf 1a3e 5f00 0a3e 6fea 013f dd10 983e
00000360: 8a76 59be 3925 4b3b 92b3 0e3e 1c3c 7fbd
00000370: 6223 8c3e 0261 a13c 181e 2cbe 0dbf e33b
00000380: 79fc 90ba 86a1 8fbd 2410 6abe 3d81 bd3e
00000390: c825 233d 2c41 2a3c 10c5 1bbd a27a 063e
000003a0: ed5f bd3e 2142 533e e54f 69be 11cc 73be
000003b0: a55a 3cbd a62d 15be c82f 7bba 4a1f b43d
000003c0: 9b47 ebbc 061c 223e 0250 84be 306b 13be
000003d0: 2a16 02be d8a8 f8bc 2b01 79be aa2f c2bd
000003e0: 8c7e c1bd 3941 d0be 35bb 193e c416 893e
000003f0: 19ee 953e 5ba7 9e3d b495 25be d60d 693e

mlp_extractor.policy_net.0.bias f4 [64]
0.21385257 0.30836323 -0.08935047 -0.119567715 -0.0533831 0.16891213 -0.20052822 -0.054029144
0.28537205 -0.2590206 -0.35632697 0.050542105 0.044306483 -0.2502284 0.18771453 -0.070130564
-0.10163611 -0.29058355 -0.0030095915 -0.17899723 0.008060785 -0.014420128 0.050519444 -0.22318542
-0.2167653 -0.20006926 -0.056353647 0.018513136 0.3115292 0.22958252 -0.16967385 0.042637825
-0.22277594 0.039918646 -0.18935601 -0.044813752 0.12155254 -0.024183866 0.079914406 -0.1669322
-0.124504454 -0.3007579 -0.043599244 -0.17175157 0.25928232 -0.26322526 -0.12537116 0.025136424
-0.2563105 -0.06533827 0.041696697 0.0058905846 0.16952203 0.11157858 0.27778408 -0.2291512
0.15940265 -0.26963606 0.11635069 -0.12780409 -0.076982126 -0.22707056 -0.428827 0.0037844833
00000000: 2bfc 5a3e c9e1 9d3e 61fd b6bd ebdf f4bd
00000010: 3da8 5abd 4df7 2c3e 4557 4dbe aa4d 5dbd
00000020: 491c 923e 599e 84be 7d70 b6be 3d05 4f3d
00000030: b77a 353d f01d 80be 3d38 403e 9da0 8fbd
00000040: 9826 d0bd 5ec7 94be 913c 45bb 0d4b 37be
00000050: 6211 043c 6742 6cbc 7aed 4e3d b88a 64be
00000060: b9f7 5dbe f5de 4cbe 15d3 66bd dca8 973c
00000070: c180 9f3e ae17 6b3e fbbe 2dbe 00a5 2e3d
00000080: 601f 64be bc81 233d 8be6 41be a08e 37bd
00000090: 8af0 f83d 3e1d c6bc 2aaa a33d 46f0 2abe
000000a0: 31fc febd f1fc 99be 1f95 32bd a5df 2fbe
000000b0: a7c0 843e 76c5 86be 4c61 00be e7ea cd3c
000000c0: 213b 83be 12d0 85bd 28ca 2a3d ce05 c13b
000000d0: 2f97 2d3e 5083 e43d b739 8e3e 9da6 6abe
000000e0: 733a 233e bd0d 8abe 4549 ee3d 13df 02be
000000f0: cea8 9dbd 2f85 68be 368f dbbe 1805 783b

mlp_extractor.policy_net.2.weight f4 [64, 64]
-0.45660582 -0.009145933 0.085830614 0.141534 -0.21951705 0.2303792 0.020127308 0.38027304
-0.054266617 0.22981948 0.25470993 -0.15660162 0.2461989 0.105435245 -0.21011418 -0.13793056
0.037242036 -0.175008 0.20389284 -0.20811029 0.12651084 -0.24725601 0.1492855 -0.09981412
-0.10742535 -0.17292117 -0.3209066 0.12021821 -0.039201017 -0.08889061 0.023160426 0.10711595
-0.013265333 0.06930041 -0.029278925 0.052975215 0.116834804 0.03723739 -0.1927207 0.1633375
-0.36314502 0.22687206 -0.066087425 -0.108330466 -0.051535375 -0.14765206 0.1572627 -0.041405566
0.10727987 0.07818055 0.13659468 -0.12947904 -0.026774688 -0.13108404 -0.5065826 -0.045451798
0.22290312 -0.10162653 0.26938406 -0.04704644 -0.18685451 0.100673035 0.19058663 0.09847623
-0.22042558 0.08388444 0.14518474 -0.03654009 0.052279588 -0.14641742 0.17999153 -0.07579949
-0.1622102 -0.10462183 0.15781595 -0.27580616 -0.47615084 0.027694423 -0.17354837 0.029841738
-0.24499787 0.097422354 -0.025370246 0.20027684 0.12905717 -0.041926153 0.035108868 -0.45773306
0.32450825 -0.027910499 0.16273862 0.23885061 -0.17100896 0.16120984 -0.04402207 0.13623297
-0.049304876 -0.1838409 0.08274817 0.08990892 0.06696676 0.1108462 -0.13071911 0.0070847706
-0.19135432 -0.2141611 0.14736395 -0.045317553 -0.04891778 -0.21934097 -0.12262186 0.30505198
0.09169286 0.27214724 0.054369748 0.19508061 -0.076080054 -0.057940897 0.034348633 0.20739776
0.11338719 -0.3757982 0.14036472 0.12475557 -0.21956979 -0.30801538 -0.121197805 0.08894879
0.18741448 -0.022046393 0.054083597 0.096129864 -0.19019929 0.14792068 0.22637716 0.077124916
0.28575838 -0.116373055 -0.11607748 0.3468908 0.048052114 0.0072853244 0.23869927 0.3496848
0.22510377 0.16683483 -0.097032934 0.04867511 0.17176592 -0.14339857 0.15712175 0.073168494
0.108493954 -0.08229154 0.268722 -0.052984893 -0.0029468816 -0.14694875 0.15048784 -0.07838271
-0.21414447 -0.018862601 0.05471965 0.032092612 -0.10921453 0.018456029 -0.41677037 -0.002769368
-0.019624345 -0.012857355 0.013072434 0.062931746 0.13634837 0.4331507 -0.0920079 0.31938994
0.07173316 0.4130353 0.20218223 -0.24552059 0.1498643 -0.15330996 -0.059148923 0.19565016
0.049712133 0.11961344 -0.055729143 -0.21549745 -0.3647994 0.08981214 0.1312857 0.035273127
0.06152929 -0.1025649 0.18556286 0.28895864 -0.10052081 0.026361853 0.23977792 -0.06799948
0.1468343 -0.13500383 -0.088091314 -0.010500385 0.070067875 -0.27896097 -0.081195004 -0.19353795
0.19964622 0.29467443 0.10780398 0.037975196 -0.12885943 -0.27792564 -0.23312221 0.11835979
0.03724231 -0.06163388 0.2074934 -0.15919821 0.023385808 0.10657838 -0.17332646 0.114054866
0.08437508 -0.27873787 0.16683851 -0.17701617 0.13290752 -0.24517089 0.3142953 0.016678581
-0.30810162 0.14699693 -0.038404234 -0.04992483 -0.26363757 -0.009878061 0.06278721 -0.04327965
0.1429184 -0.029243086 0.40614885 -0.33999458 -0.15258427 -0.20379718 0.08428897 -0.12056205
0.08367248 0.105947636 -0.25252488 0.18340132 0.09614785 -0.3285861 -0.14831051 0.15986317
00000000: 3dc8 e9be d3d8 15bc f6c7 af3d 4aee 103e
00000010: 14c9 60be 86e8 6b3e 06e2 a43c 26b3 c23e
00000020: ac46 5ebd cc55 6b3e 5769 823e 2d5c 20be
00000030: 901b 7c3e 6fee d73d 2c28 57be ab3d 0dbe
00000040: 1b8b 183d 4c35 33be 49c9 503e dd1a 55be
00000050: 0f8c 013e ae30 7dbe 4cde 183e 586b ccbd
00000060: d201 dcbd 3f12 31be df4d a4be f734 f63d
00000070: 3f91 20bd 480c b6bd efba bd3c 9b5f db3d
00000080: d756 59bc 60ed 8d3d 5bda efbc 8afc 583d
00000090: 1647 ef3d 3c86 183d 9358 45be f241 273e
000000a0: 25ee b9be 2651 683e d858 87bd 5ddc ddbd
000000b0: c216 53bd 1a32 17be 7909 213e e298 29bd
000000c0: 8cb5 db3d 201d a03d 7adf 0b3e 2796 04be
000000d0: 9756 dbbc e53a 06be 66af 01bf aa2b 3abd
000000e0: b740 643e 9221 d0bd b5ec 893e c5b3 40bd
000000f0: ca56 3fbe aa2d ce3d 2429 433e e8ad c93d
00000100: 3eb7 61be 9bcb ab3d 4fab 143e 10ab 15bd
00000110: 1f23 563d 73ee 15be b34f 383e c33c 9bbd
00000120: 6e1a 26be f843 d6bd 819a 213e 7736 8dbe
00000130: 0bca f3be 6adf e23c aab6 31be a976 f43c
00000140: b9e0 7abe 5f85 c73d 43d5 cfbc 5f15 4d3e
00000150: 9027 043e c2ba 2bbd 51ce 0f3d fd5b eabe
00000160: f225 a63e 8fa4 e4bc f4a4 263e 4195 743e
00000170: f91c 2fbe 3114 253e 7c50 34bd a880 0b3e
00000180: e9f3 49bd ca40 3cbe df77 a93d 2b22 b83d
00000190: de25 893d 5503 e33d 3bdb 05be 5d27 e83b
000001a0: 63f2 43be 0c4d 5bbe 93e6 163e e69e 39bd
000001b0: 035e 48bd eb9a 60be 2b21 fbbd c62f 9c3e
000001c0: 77c9 bb3d e256 8b3e d0b2 5e3d 36c3 473e
000001d0: dccf 9bbd 6f53 6dbd 27b1 0c3d 1460 543e
000001e0: 8b37 e83d 9f68 c0be c5bb 0f3e d97f ff3d
000001f0: e7d6 60be 31b4 9dbe 8e36 f8bd c92a b63d
00000200: 95e9 3f3e a39a b4bc c386 5d3d bcdf c43d
00000210: 9ac3 42be 8578 173e 6acf 673e abf3 9d3d
00000220: ec4e 923e ff54 eebd 08ba edbd ac9b b13e
00000230: 4bd2 443d bbb9 ee3b 956d 743e e309 b33e
00000240: 9a81 663e c0d6 2a3e 34b9 c6bd 8d5f 473d
00000250: 68e3 2f3e 13d7 12be 86e4 203e 5dd9 953d
00000260: 1432 de3d 7888 a8bd ee95 893e b006 59bd
00000270: 7820 41bb bc79 16be 7c19 1a3e 1d87 a0bd
00000280: b048 5bbe be85 9abc b621 603d 8b73 033d
00000290: deab dfbd 1931 973c ed62 d5be 497e 35bb
000002a0: 3cc3 a0bc a8a7 52bc c32d 563c 5ce2 803d
000002b0: e89e 0b3e eec5 dd3e a36e bcbd 1487 a33e
000002c0: d6e8 923d 5d79 d33e dc08 4f3e c069 7bbe
000002d0: 0776 193e 49fd 1cbe 2446 72bd 8458 483e
000002e0: f39e 4b3d e4f7 f43d 3e44 64bd 5dab 5cbe
000002f0: fdc6 babe 6def b73d c26f 063e 8e7a 103d
00000300: 2306 7c3d 8c0d d2bd 3104 3e3e 63f2 933e
00000310: dbdd cdbd d0f4 d73c 5888 753e 5043 8bbd
00000320: bb5b 163e 723e 0abe 3869 b4bd cf09 2cbc
00000330: bf7f 8f3d f9d3 8ebe 9149 a6bd d02e 46be
00000340: 0f70 4c3e 91df 963e 55c8 dc3d e18b 1b3d
00000350: baf3 03be 454c 8ebe 97b7 6ebe 9e66 f23d
00000360: 648b 183d cf73 7cbd 2679 543e db04 23be
00000370: 9893 bf3c c445 da3d 7e7c 31be 9995 e93d
00000380: d8cc ac3d bbb6 8ebe b7d7 2a3e ba43 35be
00000390: e918 083e 140e 7bbe 50eb a03e 85a1 883c
000003a0: 7fbf 9dbe 5d86 163e c24d 1dbd fb7d 4cbd
000003b0: 81fb 86be 97d7 21bc 9596 803d 0146 31bd
000003c0: 3359 123e 328f efbc bef2 cf3e c513 aebe
000003d0: 0d3f 1cbe 35b0 50be b29f ac3d 3ce9 f6bd
000003e0: 7a5c ab3d 13fb d83d f14a 81be 8ecd 3b3e
000003f0: 2ae9 c43d 703c a8be b6de 17be 2cb3 233e

mlp_extractor.policy_net.2.bias f4 [64]
-0.101727575 0.056129914 -0.09588859 -0.030828917 0.082498565 -0.05065093 0.021089584 0.15658872
0.05213832 0.01627246 -0.23705143 0.12860236 -0.032820072 -0.017890548 -0.120331064 -0.20379937
-0.08407061 0.06605646 0.08591609 0.047114298 -0.09789622 0.20966858 0.18919104 0.060722627
-0.104465984 0.15981527 -0.1234118 0.09304543 -0.02874877 0.13638695 0.020778744 0.094842836
0.16388257 -0.073401034 0.07056771 -0.010531286 0.08106369 0.12106714 0.08099153 -0.09165901
0.065791 -0.07138743 -0.123541996 -0.14351502 -0.11172626 -0.0134910755 -0.049449384 -0.21795267
0.12546293 -0.11977091 -0.26018718 -0.17504433 -0.12191827 0.0034226014 -0.16110267 -0.17528296
0.1816881 0.03003545 -0.012419724 -0.25687245 0.036704026 -0.11477773 0.16668694 -0.09900146
00000000: 8c56 d0bd 7be8 653d 3d61 c4bd ed8c fcbc
00000010: 02f5 a83d 5977 4fbd 10c4 ac3c cb58 203e
00000020: fe8e 553d d24d 853c 9cbd 72be 56b0 033e
00000030: 576e 06bd 338f 92bc 2270 f6bd c8b0 50be
00000040: 362d acbd 9c48 873d c6f4 af3d ecfa 403d
00000050: d07d c8bd 5cb3 563e 4cbb 413e 4ab8 783d
00000060: 43f2 d5bd 9da6 233e 53bf fcbd 9a8e be3d
00000070: 8a82 ebbc 05a9 0b3e 2f38 aa3c f63c c23d
00000080: d5d0 273e 4853 96bd ce85 903d 6a8b 2cbc
00000090: b804 a63d 0cf2 f73d e3de a53d b8b7 bbbd
000000a0: 6fbd 863d 9333 92bd 9603 fdbd 9af5 12be
000000b0: bdd0 e4bd ac09 5dbc 708b 4abd fc2e 5fbe
000000c0: 5b79 003e 734a f5bd 4137 85be d23e 33be
000000d0: 49b0 f9bd b94d 603b 19f8 24be 607d 33be
000000e0: 720c 3a3e e70c f63c 197c 4bbc c984 83be
000000f0: f656 163d 9610 ebbd fbaf 2a3e 47c1 cabd

action_net.weight f4 [2, 64]
-0.10566042 -0.048328612 0.02899979 0.037038926 0.004608349 -0.03732348 -0.08640603 0.15130171
-0.096308835 0.023046348 -0.2371628 0.03091302 -0.0934658 0.037654568 -0.14429818 -0.08717737
0.05356792 0.12031508 0.048404824 0.11023091 -0.040248245 0.077672176 0.036614906 0.00046565465
-0.040704418 0.05433761 -0.0028954246 0.18990889 0.0070935115 -0.0049714018 0.021944087 0.07773303
0.03674759 -0.16639397 -0.0064680274 -0.16564101 0.03399168 0.12766874 0.23703948 -0.20210052
-0.08957643 0.021688078 -0.049707223 0.0017094985 -0.026964236 0.107895754 0.06492507 -0.27230343
-0.013708455 -0.076216646 -0.12954228 -0.124172024 -0.034750655 0.033925783 -0.113926396 -0.24688531
0.12345646 -0.048430696 -0.13313073 -0.17894086 0.00018618966 -0.04374549 0.050692428 0.024411779
0.03899004 -0.06646973 0.099338405 0.032296695 -0.26243845 0.010111755 -0.13303192 -0.109465435
-0.21131837 0.031676188 0.20841706 -0.1085857 -0.03263895 -0.021474784 0.07639706 0.319492
0.17451434 -0.019751174 -0.080116056 -0.022335619 0.0721293 -0.27725935 -0.22892673 -0.07384547
0.10450279 -0.11158166 0.08550053 0.02705778 0.015787838 -0.1462873 -0.065279946 -0.030531447
-0.17796218 -0.011551054 -0.08936579 -0.069649 -0.024856351 -0.03798094 -0.017882446 0.020477101
-0.12486684 0.006123752 0.00806679 0.19713995 0.06805309 0.12317852 0.12957151 0.22307277
-0.16277185 0.055446174 0.30595386 0.13824879 0.034470767 -0.009820449 0.033904724 0.10756784
-0.08926214 -0.008931799 -0.070397705 0.41113794 -5.9069418e-05 0.09433167 -0.1769921 0.087661274
00000000: 7e64 d8bd 39f4 45bd f890 ed3c 21b6 173d
00000010: a201 973b 81e0 18bd a5f5 b0bd d6ee 1a3e
00000020: 913d c5bd b2cb bc3c ceda 72be 4d3d fd3c
00000030: ff6a bfbd ad3b 1a3d e7c2 13be 0d8a b2bd
00000040: 096a 5b3d c167 f63d 2344 463d bec0 e13d
00000050: 58db 24bd 9712 9f3d 83f9 153d 1c23 f439
00000060: adb9 26bd 1d91 5e3d 2ac1 3dbb 7a77 423e
00000070: b070 e83b 24e7 a2bb 16c4 b33c 7f32 9f3d
00000080: a484 163d 2e63 2abe bff1 d3bb cc9d 29be
00000090: dc3a 0b3d 98bb 023e 7aba 723e 70f3 4ebe
000000a0: d973 b7bd 32ab b13c cd99 4bbd 4011 e03a
000000b0: 1ae4 dcbc 73f8 dc3d 6ff7 843d 5b6b 8bbe
000000c0: 6d99 60bc 7917 9cbd bba6 04be e74d febd
000000d0: b456 0ebd c3f5 0a3d 3e52 e9bd 81cf 7cbe
000000e0: bed6 fc3d 445f 46bd 6c53 08be 463c 37be
000000f0: e83b 4339 792e 33bd dda2 4f3d 36fb c73c
00000100: 05b4 1f3d 4821 88bd ef71 cb3d 8a49 043d
00000110: 555e 86be c6ab 253c 8539 08be 6a2f e0bd
00000120: d863 58be e4be 013d 486b 553e 2e62 debd
00000130: 6bb0 05bd e3eb afbc 1076 9c3d 7594 a33e
00000140: e3b3 323e 37cd a1bc e313 a4bd 30f9 b6bc
00000150: 87b8 933d f0f4 8dbe c56b 6abe 4b3c 97bd
00000160: 8f05 d63d ed84 e4bd e71a af3d 47a8 dd3c
00000170: 7f55 813c 57cc 15be 7eb1 85bd 161d fabc
00000180: b83b 36be a240 3dbc 6905 b7bd 23a4 8ebd
00000190: 8c9f cbbc e791 1bbd 357e 92bc 98bf a73c
000001a0: 30ba ffbd c1a9 c83b 922a 043c 0edf 493e
000001b0: 6b5f 8b3d 0545 fc3d 65ae 043e 306d 643e
000001c0: aaad 26be 871b 633d fca5 9c3e 1791 0d3e
000001d0: 3831 0d3d f3e5 20bc aedf 0a3d 874c dc3d
000001e0: 12cf b6bd ae56 12bc ac2c 90bd ac80 d23e
000001f0: 4ec1 77b8 f630 c13d 6b3d 35be c187 b33d

action_net.bias f4 [2]
0.15919648 -0.20587978
00000000: 6704 233e 26d2 52be
